ev_project/model.pth (torch, 205413 bytes, 9 tensors)

lstm.weight_ih_l0 f4 [256, 1]
00000000: 96af 02bd 4793 6cbc a001 01be 0853 81bd
00000010: 7a6a 28bc df82 dfbc 867c 0b3c 06e8 f139
00000020: 9f88 443d 7fff 69bd c2d5 953d 63d0 82bd
00000030: 3a2e 9cbd 22fe fdbd 4da2 203d b276 dcbd
00000040: fe77 d5bd 5395 333d 41b7 4ebd 3d6a fe3c
00000050: bf1b 943d d3c1 d43d 6ca7 1fbe 3a90 27be
00000060: f336 063d b42e 0cbd e35d 0bbc d874 33bd
00000070: 6bbc 8b3d 2910 9e3d 9e1b f5bc 3499 84bc
00000080: f5dc 0dbc d0b0 47bd 28e1 b6bd 0927 013d
00000090: a52e 0cbe e8d2 6bbd e1b5 eb3c abed af3d
000000a0: a17a a6bd 16e1 b63d 36a3 063d 2cb3 6f3d
000000b0: c3da a2bb b00e 9a3d 157b 573d d269 3abd
000000c0: 7f75 323d 41a1 853c 68b2 afbc 569a 66bb
000000d0: e9a2 763c 7001 16be d808 ddbc 6b24 91bd
000000e0: 15ca 613c 8881 883b 992f 2d3c b8d8 3cbc
000000f0: 26c4 d33d b14d be39 944b ae3c 67f4 aa3d
00000100: 7826 0fbe 459a 683d 1ca1 c33d 1e6a b13d
00000110: 33b4 90bd 70ac 8ebd 5f09 873d 2c9d dfbd
00000120: 7cdf b0bd 8eec dabc e260 ccbd 2dc0 5e3d
00000130: 1b9c 0cbe 8b91 3fbd 8b59 8d3d dac4 ea3c
00000140: 5b81 01be eb9e e4bd 48a2 10be 1528 81bd
00000150: e304 c2bd 428a 73bd 1738 c33c a5a9 9abc
00000160: fdb0 8c3d 21c1 ea3d f1ed ef3c 813a 0fbe
00000170: e872 1bbe ceca b13c 50af e1bd c30f 44bd
00000180: 54c2 1bbe 5ba5 13be c8e9 9dbd 6985 f3bc
00000190: 57da 21bd ae5a 643c c18a d6bc 44a0 773d
000001a0: 23e4 4a3d 7817 99bd 484e b1bd 2853 13bd
000001b0: 2d03 fbbd 2bda a6bc 7a9d f0bb 859b dcbd
000001c0: d380 3fbd 4019 d1bc 911c 113e d416 9c3d
000001d0: c497 e2bc 1965 763d 87e0 943c 73c1 f2bd
000001e0: 5708 373d 7dbb ba3d 87df c2bd 9b87 5c3d
000001f0: 9ed7 e53d 7709 3b3d a545 61bd 9b4f 09be
00000200: 1ebb da3d 3e61 983d f30b 06bb 816c 823c
00000210: b3a9 31bd 37a3 89bd 8c90 e93d f654 933d
00000220: 5cbe 2cbe 6d00 ad3d 0ff5 ddbd 12df 873d
00000230: b243 c7bd 3864 cb3d a613 a13c f306 d0ba
00000240: 3fa7 cbbd 9b68 a53d 1641 8a3c ba30 8abd
00000250: 1a47 e93a 25d1 893c d57b bb3c 94ba 8d3d
00000260: ed0b 3bbd fdeb ce3d e1de f5bd d60f 803d
00000270: c23b aebd be55 1ebe 9ef6 093e d66d aebc
00000280: 7cca 81bd 613f 69bd f316 e83d 13bd 06bd
00000290: f64b b63d fa26 1bbc 2810 1a3d 708e 1ebe
000002a0: 2705 863b aff2 f73d f594 89bd 96a2 703d
000002b0: 75d5 663d a9cd aebd 8c3c 363d b31e 91bd
000002c0: 2cd3 4bbd ed01 a6bd 8758 413e c123 9d3d
000002d0: 85d6 de3d b6d4 993d 7c74 b9bd ff31 0b3d
000002e0: d652 533b 2051 edbd 02be b2bd 50b4 713d
000002f0: 5a26 fe3c 14e7 88bb 3850 24bd bbc6 843d
00000300: 0ca6 83bd 9390 673d cbae e7bd 9577 00be
00000310: a22c c43d 17bc 0ebc a3d9 82bd a6f6 28be
00000320: 2d8b bcbd 13f4 953d 5359 efbd e30d e2bd
00000330: 54c1 29bd 7fc8 08be 5e80 90bd 36c3 23be
00000340: b081 b1bd 1035 903d cf52 26be c41c f2bc
00000350: 4214 23be 8778 e9bd ee45 a9bd 0292 8abd
00000360: e685 eebd 68ce d73d 91a3 943c 5f85 873d
00000370: 871e 1fbd 32b4 643d 2827 efbd 48c3 1e3d
00000380: bc17 22be 3d6b 0bbe 1ac4 133d 5dcb 01be
00000390: 5505 34be 917f 563d fce1 e2bd 171f a53d
000003a0: 5b34 67bd eeb6 b93d dfc6 c5bd 48b6 9fbd
000003b0: 55f2 d4bd 6ae3 64bd 30f9 16be 0c39 30be
000003c0: 2554 a1bc 2a98 f9bd 0678 b0bd 9963 a5bc
000003d0: 17e3 cebd 0696 85bd 9cdf 073d d48c 68bd
000003e0: 09ee d9bc 5165 98bd 47f3 25bc c8b2 77bd
000003f0: 4a5e c6bd 7d72 e63c fe33 9e3c b0a4 6c3d
-0.031905733 -0.0144394105 -0.12598276 -0.06314665 -0.010279292 -0.027284084 0.008513575 0.00046139973
0.047981855 -0.057128426 0.07316162 -0.06387403 -0.076260045 -0.124019876 0.039217282 -0.10764827
-0.10423277 0.04384358 -0.050467733 0.031056518 0.07231855 0.103885315 -0.1559121 -0.16363612
0.032767247 -0.034224227 -0.008506271 -0.043812603 0.06823047 0.07717926 -0.029920395 -0.016186334
-0.008658637 -0.048752606 -0.08929664 0.031531367 -0.13689668 -0.057574183 0.02877325 0.085902534
-0.08128858 0.089296505 0.032870494 0.05852048 -0.004969926 0.07522333 0.052607615 -0.045511074
0.043569084 0.016312243 -0.021447375 -0.0035187206 0.015053489 -0.14648986 -0.026981756 -0.07087024
0.01378109 0.004165832 0.01057043 -0.011526279 0.10340147 0.0003629751 0.021276273 0.08347397
-0.13979518 0.056787748 0.095522135 0.08662818 -0.0706562 -0.069664836 0.06593584 -0.1091865
-0.08636376 -0.026724126 -0.099794164 0.05438249 -0.13731425 -0.04676966 0.069018446 0.02865832
-0.12647001 -0.11163124 -0.14124405 -0.06306473 -0.09473588 -0.059458025 0.023830457 -0.018879721
0.06869695 0.11462618 0.029288264 -0.13987161 -0.15180552 0.02170315 -0.11019766 -0.047866594
-0.15210849 -0.14418547 -0.07710606 -0.0297267 -0.039514866 0.013937635 -0.02618921 0.060455576
0.049533974 -0.074751794 -0.08657509 -0.035967976 -0.12256465 -0.020367702 -0.0073429914 -0.107718505
-0.046753716 -0.025524735 0.14171053 0.076215416 -0.027660258 0.060155008 0.01817347 -0.11853304
0.044685688 0.09117792 -0.09515291 0.05384026 0.11222766 0.045663323 -0.05499806 -0.13409273
0.10680221 0.074404225 -0.00204539 0.01592088 -0.04337473 -0.06720584 0.11404523 0.071939394
-0.16869491 0.08447347 -0.10837757 0.06634344 -0.09729709 0.099312246 0.01966269 -0.0015871212
-0.09944009 0.080765925 0.016876739 -0.06747575 0.0017797679 0.01682336 0.022886196 0.069203526
-0.04566567 0.10103605 -0.120054014 0.062530205 -0.08507492 -0.15462396 0.13472983 -0.021292608
-0.06337449 -0.05694521 0.11332502 -0.03289516 0.08901207 -0.009469742 0.037613064 -0.15484023
0.0040899697 0.12106835 -0.067178644 0.058748804 0.056355912 -0.0853532 0.044491336 -0.070859335
-0.049761936 -0.08105836 0.18881427 0.07672835 0.1088076 0.075112745 -0.09055421 0.033983227
0.003224542 -0.11587739 -0.08727647 0.05900985 0.031024147 -0.0041779373 -0.040115565 0.06483217
-0.06428155 0.05653436 -0.11312636 -0.12545617 0.095788255 -0.008711836 -0.06389167 -0.16500339
-0.09206233 0.07321944 -0.11686959 -0.11037805 -0.041444138 -0.13357733 -0.07055734 -0.15992436
-0.08667314 0.07041371 -0.16242526 -0.029554732 -0.15925696 -0.11399942 -0.08265291 -0.0676613
-0.11646633 0.10537416 0.0181444 0.066172354 -0.038847473 0.05583591 -0.1167739 0.038760453
-0.15829366 -0.13615127 0.03607569 -0.12675233 -0.17580159 0.05236775 -0.11078259 0.080625705
-0.056446414 0.09068094 -0.09657072 -0.07798439 -0.10397784 -0.05588094 -0.14743495 -0.17209262
-0.019693444 -0.12187226 -0.08616643 -0.020189093 -0.10101908 -0.06522755 0.033172235 -0.05677493
-0.026602762 -0.074411996 -0.010128803 -0.060473233 -0.09685953 0.028130764 0.019311901 0.057774246

lstm.weight_hh_l0 f4 [256, 64]
00000000: 49ab 123d 6207 01bd 385a c9bc f6b9 b73d
00000010: 0d7f debc f07f b7bd 88f4 7c3c 9345 b9bd
00000020: 5c11 383c 48b8 29ba f10f abbc be42 a8bd
00000030: 8870 d83d 89ab febd 1e96 863c da37 7b3d
00000040: 0e6f 04be f7c9 883d 0d3b f3bd 7bea 60bd
00000050: 7741 e33b 98c6 de3c 5099 b3bd f86b 613d
00000060: a27d 8d3c 42b4 993c b253 d13b e009 76bd
00000070: 5902 65bc 103b 93bc 4619 13be e93c ef3b
00000080: 9058 b23d dbe0 873d 318f 47bd 51ec d5bc
00000090: 8f3d 0dbd 7c82 aa3c 20bb f7bc a8b2 c6bc
000000a0: c746 c6bd 046e 363d 06ea 0f3e 6e25 12be
000000b0: 429c 7cbd 80aa 30bb 80f7 303d b4c5 95bc
000000c0: 1fb2 f239 0211 843c b364 f4bd 3a39 a43d
000000d0: f248 acbc d8fd 643d 368a 95bc 33ea fc3d
000000e0: 5fce 5d3c 4fa9 d2bc 433e afbd 96d3 81bd
000000f0: b106 65bd 3d68 04be 446b a73d c9e1 ae3d
00000100: 550a ee3c 960c 883d 9bf3 b53b 5e40 df3d
00000110: 6c72 88bd 17da bfbd cd7a 34ba d634 fd3d
00000120: a0b7 80ba 30dd 63bd e35c a23d 45e3 f7bb
00000130: bed8 a33b 89eb a53d e758 ff3d 90ae 79bd
00000140: 7142 d6bd 0b6d b4bc 09a4 34ba c538 c5bd
00000150: d2b7 75bd 2463 253c 70bf 0ebd ba99 b9bc
00000160: 8a67 7f3d 34b7 e03d ed41 a2bc cfaa 5dbd
00000170: 9234 493c 1f20 4cbc 89a2 9b3d 3392 db3d
00000180: 889f b93b 28b9 e0bb 4c48 363c bd93 d9bd
00000190: 7b61 b2bd b61c a0bd 5550 3abd c955 d03d
000001a0: e4d4 67bd 4f5a a2bd 3c92 d83d 524c 9f3d
000001b0: 2fb1 9dbd 4320 ebbd e9c4 853d f11c 7ebd
000001c0: 13a3 373d 2890 53ba 3b55 c33d ec81 f33d
000001d0: 27a9 f6bd d53e 43bc 1585 833c 5f46 cebd
000001e0: 3a08 ce3d 9c9d ac3c d8f7 8abd a0f7 b1bd
000001f0: ccff 0bbd 0a7e a53d 0734 babd 32d6 933d
00000200: 270c cb3d 5a39 b13b c4a8 87bd 6254 ddbc
00000210: 1a45 53bd 666d cb3d 7024 c03d 724a 93bc
00000220: fa7d cbbd 072f a4bd 6079 c03d 99a1 93bd
00000230: 4707 ed3d 98df 7e3d c119 babd 295d 103d
00000240: a8c6 acbd b2d7 a73d c7a3 a53b 1d1a 933d
00000250: 8f3f aa3d 7b7f 62bd e903 b43b 2b29 153d
00000260: 634b df3d 03cb d8bc ae51 6a3d 250e d63b
00000270: de82 163d fe50 333d 29a5 1c3d 6caf eebd
00000280: 2a67 5b3d 181d eabd 79a0 a83d a6d6 83bc
00000290: c9eb be3d b63a d83d 6a2d e9bc 1821 f93d
000002a0: 2773 71bd 4530 b9bc add8 ef3d ecdf 0abd
000002b0: 45a4 a73d c55d a7bd 119b be3d cc3c cb3d
000002c0: fc56 643d 0119 d73c 74e1 9ebb 56a9 f23d
000002d0: d552 e5bd 12e4 823d 95ca 9a3d a84b e8bd
000002e0: 71b8 debd a199 b93d 5b4c f5bc 4d43 31bc
000002f0: a1de ffbd 5b66 583a c956 f83d f930 9dbd
00000300: caf7 35bd d9f1 d73d a3f3 c13d 79f4 a2bd
00000310: acab 6fbd 6cf4 73bb 4fa2 823c 0bcb 2f3d
00000320: c2cc 89bb 7bd5 0d3c 474f b53c 083d ce3d
00000330: f310 02bd e981 783d 8838 4abd f173 f33c
00000340: 9802 5e3d ad3a b6bd 7428 c43d d027 303d
00000350: 8b1e 96bd 797f 8a3d 0673 f83d 28e2 dabb
00000360: 1ae7 a93d c5e9 54bd e0b8 293d b2ea 093c
00000370: 69cb b03d 5ba7 92bd d891 90bd 0579 17bc
00000380: eb04 f93d 33c5 9c3d d4d8 253a c255 d63d
00000390: fa83 013e 4692 34bd 1ec9 93bc ab55 373d
000003a0: f7c3 213d a65e 8f3d 668f 8e3d 8098 0bbc
000003b0: 073e 8f3d 9ab5 15bd 39db e1bd dc72 d5bd
000003c0: 1cbe ce3d 86e3 debb e6ae bb3d bcb3 fabd
000003d0: 91d0 583d b129 273d 0d5a e53d 370a a73d
000003e0: 9d38 96bc 169c d8bd 6ea7 1d3d b738 c9bd
000003f0: 815a b3bd 5fe8 24bc c1ea fc3d 86b9 a7bd
0.03580788 -0.03150118 -0.024579152 0.08971016 -0.027160192 -0.08959949 0.01543916 -0.09046473
0.011234608 -0.00064742984 -0.020881625 -0.08215855 0.10568339 -0.124350615 0.016429003 0.06133256
-0.12932989 0.06679147 -0.118764974 -0.054911118 0.0069352943 0.027194306 -0.087694764 0.055034608
0.01727182 0.018762711 0.006388151 -0.06006801 -0.0139776105 -0.0179725 -0.1436511 0.007300962
0.08708298 0.06634685 -0.048720542 -0.026113661 -0.034482535 0.020814173 -0.030240595 -0.024255112
-0.096814685 0.044538513 0.14054117 -0.14272091 -0.061672457 -0.0026957095 0.043204784 -0.018282749
0.00046290547 0.016121391 -0.11933269 0.080187276 -0.021030877 0.055906147 -0.01825438 0.123493575
0.013537972 -0.025715498 -0.08556797 -0.06339185 -0.055914585 -0.12930389 0.08174756 0.08539159
0.029057661 0.066430256 0.0055527217 0.10900949 -0.06662449 -0.09367769 -0.0006884754 0.12363593
-0.000982035 -0.055630863 0.07927873 -0.0075649344 0.005000203 0.081015654 0.12468129 -0.06095749
-0.104618914 -0.022024652 -0.0006890898 -0.096299686 -0.059989758 0.010094438 -0.034850538 -0.02265631
0.062354602 0.10972443 -0.019806826 -0.054117974 0.0122806 -0.01245883 0.075993605 0.10721245
0.0056647696 -0.00685801 0.011125635 -0.10623882 -0.08709999 -0.07817976 -0.045486767 0.10172612
-0.056599513 -0.07927381 0.10574767 0.07778229 -0.07699811 -0.11480763 0.06531698 -0.06203932
0.044833254 -0.0008070492 0.09537741 0.11890015 -0.12043982 -0.011916836 0.01605467 -0.10072016
0.10060163 0.021071248 -0.06785554 -0.08689809 -0.034179494 0.08080681 -0.09091955 0.07218589
0.09914427 0.005408448 -0.06623986 -0.027017776 -0.051579572 0.099329755 0.0938195 -0.017979834
-0.099361375 -0.08016782 0.093981504 -0.07208557 0.11573654 0.062224954 -0.090869434 0.035245094
-0.08436328 0.081954375 0.005054924 0.07182715 0.08312904 -0.055297356 0.00549363 0.036416214
0.10903051 -0.026463991 0.057206802 0.006532448 0.0367459 0.043778412 0.038243446 -0.11654553
0.05356518 -0.114313304 0.08233733 -0.016093563 0.09322316 0.10558073 -0.028464038 0.12164515
-0.05894771 -0.022606025 0.117112495 -0.033904955 0.08185629 -0.08172182 0.0930692 0.099237055
0.055747017 0.02625704 -0.0048486535 0.118487045 -0.111974396 0.06391157 0.07558171 -0.11342555
-0.10875023 0.090625055 -0.029943636 -0.010819268 -0.12493635 0.0008254998 0.12125928 -0.076753564
-0.044425763 0.10544176 0.09470298 -0.07956786 -0.05851333 -0.0037224544 0.015946535 0.042918246
-0.0042053172 0.008656855 0.022132529 0.100702345 -0.031754445 0.060670767 -0.04937032 0.029718371
0.054201692 -0.0889791 0.09578028 0.04300672 -0.07330044 0.06762595 0.12131314 -0.006679792
0.08296032 -0.051980752 0.041436076 0.008417772 0.086325474 -0.07160827 -0.070590675 -0.009245162
0.12159141 0.076548 0.00063265604 0.10465576 0.12648001 -0.04408481 -0.018040236 0.044759434
0.039493527 0.07000475 0.06960945 -0.008520246 0.06994253 -0.036550142 -0.110281415 -0.10422298
0.10094854 -0.0068020253 0.091642186 -0.12241313 0.05293328 0.040811244 0.111988164 0.08156245
-0.018337542 -0.10576646 0.03848975 -0.098252706 -0.087574966 -0.010065167 0.12349463 -0.08189683

lstm.bias_ih_l0 f4 [256]
00000000: 98e3 c7bc 3ff2 55bd 01fc e4bd 7530 2cbd
00000010: 97bc eb3d cbce e0bd 7e5a 60bc 2f68 e8bd
00000020: 2ea6 f03d 4fb0 96bd 8552 833d 5ed2 85bd
00000030: 0f98 bf3d d109 e1bb f791 91bd 735b e53c
00000040: 13c3 11bd 6edd fabd 37cc 163d efe5 da3d
00000050: 9d79 dabc ceed bbbc f03a af3c 98a3 01be
00000060: c8d8 73bc b0ed abbd 40da 023e 077d e83d
00000070: ab58 373d 25ab 9d3a 2100 e23c bf3b 7f3d
00000080: d637 0b3d 0dd7 8ebd f4f2 d0bd f13d 56bd
00000090: 7cf5 5dbd d0e9 be3c 9e2a 86bc af53 9e3d
000000a0: d026 d2bb dceb 93bd b653 11bc 8337 813d
000000b0: 5131 61bd 5dfe 6f3d 936d 53bd c71d cbbd
000000c0: 4b52 85bd dedd cdbd 57d7 b6bd bef4 6bbd
000000d0: 82e3 b3bd dc53 91bd 4fdb ca3c 09be 2bbd
000000e0: 0c35 b1bd 8111 e73d 757c 14bd af82 19be
000000f0: e01b c4bd 68d2 083c 03de 1cbd 690f 56bd
00000100: ace1 ac3d c049 97bd ded5 c1bc 17bf 593d
00000110: acc9 da3b 047a 02be 00b8 c83d 8ad0 803d
00000120: 4fca bb3d 6557 b83d 830e efbd 6c6d d1bd
00000130: d6f5 d43d a9b5 c0bd af11 14bd bd11 843d
00000140: 86a8 843d a530 ebbd 22fd 383d e3cf e9bb
00000150: 1d6a cdbd aa6f 283d 7acf 54bd 96d7 b8bb
00000160: 56df e7bd f3ac 863d 1ee3 20bd 7236 f93d
00000170: 6390 d1bc dc19 173d b1c0 493d 46a5 8cbc
00000180: 1f50 91bd 1506 6f3d 76af 943d a1ca 0cbd
00000190: f11b ba3d ed86 c93d 58a6 673d 0801 3c3d
000001a0: c175 c33d b48c a1bd 85eb b33d bbb8 6c3d
000001b0: a1e5 80bb db46 d63d 9b8d 893d 2a7f a23d
000001c0: 2400 2ebd ae58 e0bd 64ea 90bc cc57 85bd
000001d0: faf7 113d 075a 433d 6b8f bf3c 2f98 15bd
000001e0: 91ef 96bb 48c0 843d 7c0a c53d b980 19be
000001f0: 6faa 63bd 6b23 a6bd eec3 75bd fe75 c03c
00000200: d8a9 00be 031f 603d f7f0 a33d 2666 b03c
00000210: 62fd 2dbd 1a69 533d 11e0 f43c a22b b9bd
00000220: 24c6 ca3d f70d 6d3c 322e c63c c6cb a03d
00000230: da0f d03d f091 143d 5d5e e6bd c14d f7bd
00000240: 35fc 3cb9 7c54 d0bc f0d2 d63d fab6 a4bd
00000250: 28ce bdbd e6b2 063c 48c2 96bb f665 b93d
00000260: bb24 c8bd fbfa f4bb b674 123e 0138 22bd
00000270: 70dd 87bd 9bda ab3d 6708 d1bd b872 54bd
00000280: fe52 e0bd 923a cebd ee72 66bd 23da 963b
00000290: 9d69 9cbd ce89 00bc b315 d93d 4158 f43d
000002a0: e4b8 cfbd 718f 9bbd 11f1 93bd ae01 0c3e
000002b0: 3ae3 95bd f89f 7c3d 0d9b 07bd 5bdd be3d
000002c0: 0ad7 033e fda8 cf3d 6749 e2bd dd5d 78bd
000002d0: d5b4 febc 5d66 81bd 360b 683d 445a 7a39
000002e0: 577a dfbd fa40 c33d 3385 293d 9189 95bd
000002f0: e69a 273d 8be4 173d 8cab 63bd ef01 9cbb
00000300: d143 76bd 1ba2 62bc c981 babc 0ea2 9d3c
00000310: c2c8 11bd 9c46 893d 94b9 813d 0e8e a13c
00000320: 0bb5 713c 9b06 b7bd 0f68 f6bd 9872 88bd
00000330: d8ae 253d 8caf f43d ff9b b2bc b717 06bd
00000340: b770 c7bd 7f81 1cbd fcdf 51bd eb07 f0bd
00000350: 7416 bf3d 287b ed3c 82eb e53d 65d1 1dbe
00000360: 50d9 983d 990c 243d 41c3 e3bd 6ac4 9a3d
00000370: 3b87 2abd 4d2a 853c 019b 173d 0ed9 a7bc
00000380: cdae b93b c363 343d 532e f4bb f2d1 963d
00000390: f582 29bd 56a6 90bc 5392 cbbc 69f5 bcbc
000003a0: 30bd b8bd ab14 4a3c ed0f 04be 3dcd 4bbd
000003b0: 1f0a 5d3d a28f 853d 9929 f3bd f0d5 343d
000003c0: e871 4f3d 8101 da3c 8121 8fbd b3ff 093d
000003d0: ecbb b03d 3384 fb3c da6d fdbd be0b bfbd
000003e0: 608d a03d ccaf b83d 3557 d1bd afb1 76bd
000003f0: 789f ecbd 0e94 973d 41b3 93bd 57ca e0bb
-0.024400517 -0.052232977 -0.111808784 -0.0420384 0.1151058 -0.10976943 -0.01369345 -0.113479964
0.11750446 -0.07357847 0.06412224 -0.06534265 0.09355175 -0.0068676253 -0.07107919 0.027997708
-0.035586428 -0.122492656 0.03681585 0.106883876 -0.026669318 -0.022940543 0.021390408 -0.12660062
-0.014883228 -0.08394945 0.12778568 0.11351972 0.044762295 0.0012029154 0.027587952 0.062312838
0.033988796 -0.069746114 -0.1020259 -0.052305166 -0.05418919 0.02330485 -0.016377743 0.07730805
-0.006413318 -0.07222721 -0.008870056 0.06309416 -0.054978672 0.05859219 -0.05161817 -0.09917789
-0.06509837 -0.100520834 -0.089277916 -0.05760645 -0.08783628 -0.07096073 0.024762778 -0.04192928
-0.08652696 0.112826355 -0.036251504 -0.14991258 -0.09575629 0.008350946 -0.038297664 -0.05226079
0.08441481 -0.073871136 -0.02366155 0.053160753 0.006676873 -0.12741858 0.0980072 0.06289776
0.09169447 0.09001044 -0.1167269 -0.10225949 0.10398452 -0.09409649 -0.036149677 0.06448696
0.06477456 -0.114838876 0.04516328 -0.0071353777 -0.10030005 0.041122116 -0.051955678 -0.005640934
-0.11321895 0.06575956 -0.039279096 0.12168588 -0.025581544 0.036889896 0.04925603 -0.017168652
-0.0709536 0.05835541 0.07260029 -0.03437293 0.09087361 0.09840188 0.056555122 0.04589942
0.09543944 -0.07888165 0.08785156 0.05779336 -0.003933624 0.10462733 0.06716462 0.07934411
-0.042480603 -0.10954414 -0.017689891 -0.065108865 0.03563688 0.04769328 0.023383817 -0.036522087
-0.0046061953 0.06481987 0.0962114 -0.1499051 -0.05558246 -0.08112224 -0.060001306 0.023493763
-0.1256479 0.054717075 0.08004945 0.021533083 -0.042477973 0.051613905 0.029892 -0.090415254
0.099010736 0.0144686615 0.02419195 0.07851367 0.101592734 0.03627199 -0.11248467 -0.12075377
-0.00018023032 -0.02543091 0.10489452 -0.080427125 -0.09267837 0.008221364 -0.004600797 0.09052651
-0.09772631 -0.0074762083 0.14302334 -0.03960419 -0.06634033 0.08391305 -0.10206681 -0.051867217
-0.109533295 -0.10069765 -0.05626195 0.0046036406 -0.07637332 -0.007845355 0.10599842 0.119308956
-0.10142687 -0.07595719 -0.07223714 0.13672516 -0.07318731 0.061675996 -0.033106852 0.09319564
0.12875 0.10139654 -0.11049157 -0.06063639 -0.031092087 -0.06318352 0.056651317 0.00023875484
-0.10912006 0.09533878 0.041386794 -0.07301629 0.040919207 0.03708319 -0.05558352 -0.0047609727
-0.06012327 -0.013832594 -0.022766965 0.019242313 -0.03559185 0.06702921 0.06334224 0.019721057
0.014752637 -0.08936807 -0.12031566 -0.06662482 0.040449947 0.119475454 -0.0218029 -0.03273746
-0.097382955 -0.038209435 -0.051239 -0.1172026 0.093304545 0.02898939 0.1122656 -0.15411909
0.07463324 0.040051077 -0.11121226 0.07556994 -0.041632872 0.016255522 0.037013058 -0.020489242
0.00566659 0.044040453 -0.0074518113 0.07364263 -0.041384656 -0.01765744 -0.024850046 -0.02306624
-0.0902046 0.012334029 -0.128967 -0.049756277 0.05396473 0.065215364 -0.118731685 0.04414934
0.05064574 0.026612045 -0.06988812 0.03369112 0.08629593 0.030702686 -0.12374468 -0.093284115
0.07839465 0.090179056 -0.102217115 -0.060228046 -0.11553854 0.07401286 -0.07211924 -0.0068600583

lstm.bias_hh_l0 f4 [256]
00000000: da59 02be 3338 3ebd 0841 6a3d 1545 8cbb
00000010: 2565 d3bd 35ee cc3d d605 023d 3b26 32bd
00000020: fae9 f23d 5db0 bcbd 1a19 c3bc 4ab5 0bbd
00000030: 3ba2 6cbd e466 9a3d 5373 c83d 0055 8b3d
00000040: 27d2 92bd d2cf f6bd d40d ea3d 65b2 d5bd
00000050: 9d13 fa3c ba62 2a3d b18c ed3d 4ca2 c8bd
00000060: 6696 a3bc ac01 b33d 30d8 c73d 5975 853d
00000070: c781 93bd 14c0 80bc 1163 78bc 5fde bfbd
00000080: a2d2 d6bd b265 06bd e297 9f3d 399c 9f3d
00000090: d406 6b3d c0af 7f3d 5ec7 dfbc bbd1 583d
000000a0: a453 093d f0ae aa3d 785f 533d 2ca2 00be
000000b0: 08b9 bdbd 2bc1 25bd 2a9e a63b dd1b 6c3d
000000c0: 799a aebd eeb5 bcbd 6b04 b0bd 8b9c 3abc
000000d0: 9d3d adbc 0506 493d c905 903c 0de5 18be
000000e0: 98c9 833d c969 3b3c dd45 07be 5d75 ff3c
000000f0: 4031 c93d d39c c93c fea9 853d 45f4 f13d
00000100: 617c 78bd b1f5 633d 1eb9 d53c adec 6ebd
00000110: c143 683d bb1f 923d 4c51 093b 4c78 1cbb
00000120: a167 63bd 858b aabd 2ad1 603d d205 903d
00000130: 5630 d33d 9b24 bf3d 49a4 d4bd dab9 6a3d
00000140: 8cc9 9f3c f386 4ebb d438 803d 14b2 83bd
00000150: 3e62 25bd 26f6 4dbd fe77 6fbd d1fb 0dbe
00000160: 3eea 94bd dd2e 04bd 4a56 083e 8801 f63d
00000170: d9f3 9cbd 37e3 83bd d7de 14be 2fec 37bc
00000180: bbd5 193d b00f 83bd d687 ea3d aaf9 ce3d
00000190: 0fd7 2cbd 00c0 3dbd 7f4b cc3c 6e5a 65bd
000001a0: 5a31 983c f60d c03d fcb0 863c 8ee1 35bc
000001b0: d1c4 0bbe 1f26 d0bd 81af 18bd 5ce9 bf3d
000001c0: ce2e e23c 9202 d7bd e1d0 e9bd 4721 a7bd
000001d0: 1e61 18bc 78c2 00be 3700 eabb 6770 fdbd
000001e0: 79e6 313c d344 8fba 84bc aabd c5cc bbbd
000001f0: b8da 9e3c be8f 29bd a2b6 083d f2e5 dabd
00000200: 32e8 c73d fb95 35bd a2d8 39bd eb89 893d
00000210: faf8 963d b637 883d b718 e6bd 2708 56bd
00000220: ea0a e33d 85d1 b6bc 411e 053c e276 423d
00000230: 06fd d63d 40f5 633d 7679 dabb 078f afbd
00000240: 0b3f 103e c700 45bd 809e cd3d 145e 8ebd
00000250: c052 a1bd fc50 93bb 1311 aabd 3262 a1bd
00000260: 070c 9fbd 94e1 e1bc efbb 123d d135 d2bc
00000270: be07 a73d a125 b83d acf9 40bd 62ac 1bbd
00000280: 1f04 a23c 5672 3bbd ce25 fabd 25b0 e53d
00000290: 8bdd a5bd ef29 78bd 56f4 2b3c b2c4 bf3b
000002a0: 389a c9bd 3b67 933b e531 24bd f1d3 a73c
000002b0: 2859 95bd a116 e13d ba68 b03d 21dc 12bb
000002c0: a552 3c3d 17d9 10bd af59 00bd a91b a63d
000002d0: 888c b8bc 9657 cebc 7c65 fc3c eacf 6fbd
000002e0: b9a2 30bc 4866 4fbd 09eb 61bd 8ab5 92bc
000002f0: 64f8 2cbd 0c2a 243c 3ca3 67bd 2303 073e
00000300: 7e3a 69bc b4a4 913c 6ee1 a43b 1f25 babd
00000310: 67db a53d 0baa 06be e2ec f1bc 7dcf 8c3d
00000320: e077 c3bd be76 02be 852f 55bd eb64 1ebb
00000330: 8ada 44bd 0b26 51bc 2e45 ab3d fbb0 4e3d
00000340: 53da a0bd 4c79 d1bd 58c2 c0bc 9948 afbd
00000350: 28af ac3d 8f4a e23c a41b 83bd 319e 1bbe
00000360: aa6b b23d 4007 e8b9 dff1 dcbd 67b2 c9bc
00000370: 74cc 493d 4404 f83d df86 24bd 489f a93d
00000380: 592e f8bd 919a be3d 45bc 90bd 7271 b53b
00000390: 0446 45bc 154c 20bd 6567 5f3d 4957 233d
000003a0: aa74 d3bd 7d87 8b3d a37a 12be 3a21 c53d
000003b0: b2c5 823c f04f 16bc e5b6 ab3d 8db8 c4bd
000003c0: 92e5 8a3c 5e35 d23c f247 35bd 0b4c 1bbd
000003d0: 42cd 01bd c7f2 cebd ee54 8fbd efd3 f13a
000003e0: 3c59 2dbd ca40 d83d 4b27 a73d e57f 0b3d
000003f0: ae5a 923d 7ece c53d 3f9d 533c b801 88bd
-0.12729588 -0.046440315 0.057190925 -0.004280696 -0.10322026 0.10006372 0.031743847 -0.04349349
0.11861034 -0.09213326 -0.02381568 -0.034108438 -0.057771903 0.07539156 0.09787621 0.06803322
-0.0716899 -0.12051357 0.11428419 -0.10434417 0.03052693 0.04159806 0.115991004 -0.09796581
-0.019969177 0.08740553 0.09758031 0.06516523 -0.072024874 -0.01571659 -0.015160338 -0.09368586
-0.10489394 -0.032811828 0.07792641 0.07793469 0.05737956 0.062423468 -0.027316745 0.05293439
0.03352703 0.08334148 0.051604718 -0.12561864 -0.092638075 -0.040467422 0.0050847726 0.05764376
-0.08525557 -0.09214388 -0.08594593 -0.011389862 -0.021147544 0.049078006 0.017580884 -0.14931126
0.06434935 0.011438795 -0.13210244 0.031183893 0.09823847 0.024610912 0.06526564 0.11814169
-0.060665492 0.05565423 0.026089247 -0.05833118 0.05670524 0.07134958 0.0020952998 -0.0023875413
-0.05551875 -0.083273925 0.054886974 0.0703236 0.10311954 0.09333154 -0.103828974 0.057306148
0.019505285 -0.0031513541 0.06260839 -0.0643045 -0.040376894 -0.050283574 -0.058464043 -0.13865592
-0.07271241 -0.032271255 0.13314167 0.12012011 -0.07663698 -0.06439822 -0.14538132 -0.011225744
0.037557345 -0.063994765 0.1145169 0.101062134 -0.042197283 -0.046325684 0.024938343 -0.055994444
0.01857822 0.09377663 0.016441815 -0.01110114 -0.13649298 -0.10163521 -0.03727675 0.09370682
0.027610209 -0.10498537 -0.114167936 -0.08160644 -0.009300498 -0.12574184 -0.007141139 -0.12374955
0.010858172 -0.0010930545 -0.08336738 -0.09169916 0.019391403 -0.04139685 0.033377297 -0.1068839
0.097610846 -0.044332486 -0.045372613 0.06715759 0.07371707 0.06651251 -0.11235183 -0.05225387
0.11086066 -0.022316704 0.008124889 0.047476657 0.10497479 0.05565381 -0.0066673113 -0.08572202
0.14086549 -0.048096444 0.10039997 -0.06951538 -0.078771114 -0.004495738 -0.08304038 -0.078800574
-0.07765966 -0.027573384 0.03582376 -0.025660427 0.081557736 0.08991552 -0.047113106 -0.038006194
0.019777356 -0.045763336 -0.12214242 0.112152375 -0.080988966 -0.060586866 0.010495266 0.0058523053
-0.09843868 0.00449839 -0.040086646 0.020486804 -0.07292396 0.10990644 0.08613725 -0.002240904
0.045977253 -0.035363283 -0.03133553 0.081107445 -0.022527948 -0.025188249 0.03081011 -0.05854789
-0.010780984 -0.050634652 -0.055155788 -0.01790883 -0.04222907 0.01001979 -0.056552157 0.1318479
-0.014235137 0.017778732 0.005031756 -0.090891115 0.08098488 -0.13150804 -0.0295319 0.06875513
-0.09544349 -0.12740609 -0.05204727 -0.0024169039 -0.048059978 -0.012765418 0.08362804 0.05046175
-0.07854142 -0.10228214 -0.02353017 -0.08558769 0.08431846 0.027623443 -0.064017564 -0.15197064
0.087119415 -0.0004425589 -0.10788321 -0.024621202 0.049267247 0.121101886 -0.040167686 0.082823336
-0.12118215 0.09306825 -0.070671596 0.0055372054 -0.012040619 -0.039135057 0.054541964 0.039878163
-0.10324986 0.06812952 -0.14304595 0.09625478 0.01596341 -0.009174332 0.08384494 -0.09605513
0.01695517 0.025660213 -0.044258066 -0.037914317 -0.03168989 -0.101049 -0.06998621 0.0018450002
-0.04232143 0.105592325 0.081617914 0.034057517 0.07146202 0.09658526 0.012915908 -0.06640953

lstm.weight_ih_l1 f4 [256, 64]
00000000: 00a0 63bd 7f17 4b3d 6986 86bd e8ed 603d
00000010: 513c 163d 233d 23bd e8a7 82bc 4bed cdbd
00000020: 9ae9 803c 48b5 ab3d 0b27 cfbd 14ee 84bd
00000030: 523a cebd 2ddd 1ebd 7304 a03d 47ca 4dbd
00000040: 4a57 5bbc 730c b3bd 5709 5ebd d304 4fbd
00000050: 45ff ba3d 5b2e 933c decd 00be 70ff 16be
00000060: 2c8f 82bd a157 a63d 6967 a8bd 0b52 da3d
00000070: c222 38bd 6a27 a9bd 54f7 25bd bee4 85bd
00000080: 7efc feba 2a29 b63d 1936 8ebd 62f9 b33d
00000090: e7f0 8b3d 33da 653d ffce 6dbc ce90 57bb
000000a0: 8714 b2bd 52a2 5fbd c89b b73b 1d61 d43d
000000b0: 4ced 95bc 68e1 573d 6155 ccbd deeb babc
000000c0: dca0 bbbd ac0f b93d a3d0 fbbd d6a5 1b3b
000000d0: 72dd e63d 07cc 99bd c4e1 83bd f023 943b
000000e0: b6a6 113d 117f 11bc 9150 5dbd 1384 b6bd
000000f0: f7ff f9bd 50f3 433c 4db3 8a3b ac1f 023d
00000100: 1bcc 833d be46 ce3d fa42 8ebd 25d4 95bd
00000110: 57de acbd 45a0 99ba 4f8e 79bd d6fe bdbd
00000120: 902a 7c3d 684c c7bc 0d18 f3bb 1e24 c43d
00000130: 2b3f 0cbe 4733 2fbd e25e 9fbd 7744 423c
00000140: 586c 983d a3a6 093c c626 a0bd e10a 863b
00000150: 3742 60bc edbf 81bc 219b 0c3e 3e5e ce3d
00000160: 9ee7 583d c657 07be 9ae1 163d 8abc afbd
00000170: 9902 0d3e c63f 8fbd c6b1 79bc 0708 76bd
00000180: d096 973c 847a 1abd 914a c8bd fc14 64bd
00000190: 5a4a de3d 7bf7 cdbd bf81 0dbd 7c3e b03d
000001a0: 9b65 a73c e926 0bbe b69f 033d 0ef9 afbd
000001b0: 987e 273d 27b8 b0bd 238c bebd aee6 1dbd
000001c0: e6db 85bb dd0e fabd 9db7 f63d b645 ab3d
000001d0: 2735 af3d 189e 7abd 210a e43d acb2 f13d
000001e0: 21aa 8c3d 3d2e db3d 85e8 bebd 1b08 d13d
000001f0: 3a94 dabd 6c85 f7bd c2c2 0e3d 4ad7 a03d
00000200: 9114 673d ac30 f2bd b9a4 20bd e1bb aebd
00000210: 87a7 7bbd 41e3 e03c 950a 8abc 8639 c53d
00000220: e839 f13d da6e dc3d f37d 7a3d 80cc 673d
00000230: 5292 b7bd 7b8b a8bc 8a57 283d 5f8c 823d
00000240: d175 423c 8a40 6a3d 80b1 123d 8385 88bc
00000250: 7aee 103d 4384 803d f15a 2c3d 7413 1abd
00000260: ac43 debd 3603 f93b 7353 a43d 3c78 adbb
00000270: 4630 683d a0d8 d3bd 59cc 8cbd 6362 893d
00000280: c2b4 c73d 2b9f dbbd 7541 d2bd cb71 d53d
00000290: 32b5 8d3d cc0d 4bbc 1c0d c53d ef85 febc
000002a0: c5fa 04bd c9e3 0c3d 1f77 d83c 9714 2dbc
000002b0: 21db c6bd 1900 3cbd 9490 5abd 28a3 863d
000002c0: 8928 c03d ac18 9abd 92c3 adbc 5878 b83c
000002d0: 3f9e c8bd 6a88 603c d892 7cbd eb60 00bd
000002e0: 1621 3fbd 3b74 793c 9815 e6bd 18d9 1b3d
000002f0: 5182 d03d 93c9 c5bd cf2a a7bd 493b 203c
00000300: fca7 6dbc fb22 9b3d 56d3 78bc cc59 b23d
00000310: 8f17 c23c a6b1 9dbd 122b 743d a707 afbc
00000320: b412 d9bb 1017 233d 1c97 5d3c 0e0d 313b
00000330: da2e 0f3d df1c 04be 4a6c f13d 665f 623c
00000340: f8ec 253d 04e3 723d fa54 ddbd f549 00bd
00000350: 95cc a93b d30f c0bd 4c2a ea3d 5946 cc3c
00000360: 9eda 44bd dd08 5a3c 3833 8bbc fc72 49bd
00000370: 37c9 803d 0428 cd3d 990f 22be 58d1 b0ba
00000380: 4355 153d 9896 0f3d 75a2 583c bdd2 dd3c
00000390: cbff b1bd 79c4 e4bd c321 66bd 8087 eb3c
000003a0: a4a3 ea3d f095 bbbc 643d dfbd c1fa a93d
000003b0: cdc7 febd c794 0f3d e359 e53c c7be 96bd
000003c0: 84d0 b93c 7787 d0bd 6b95 babd 37d0 4cbd
000003d0: 6b4d f93d 1fd4 7abd d15b 813d e31f 9ebc
000003e0: 24bd 153c 5e2c 5a3d 0d1a cb3d 31be 42bc
000003f0: 90b3 4e3d db25 613d bef9 b33d ff66 393d
-0.05557251 0.049582954 -0.065686055 0.054914385 0.036678616 -0.039853226 -0.015949205 -0.10055026
0.01573639 0.08384186 -0.10114869 -0.06490722 -0.100697175 -0.03878515 0.078133486 -0.050241735
-0.013387511 -0.08742609 -0.054208126 -0.05054171 0.0913072 0.01796644 -0.12578532 -0.14745879
-0.06374964 0.08122183 -0.08222849 0.1066018 -0.044955023 -0.08259471 -0.040519074 -0.0653777
-0.0019453911 0.0889457 -0.06943912 0.087878 0.06833058 0.056116294 -0.014514684 -0.0032892707
-0.086953215 -0.05459816 0.0056032874 0.103700854 -0.018301629 0.0527052 -0.09977222 -0.022817548
-0.09161541 0.09036192 -0.12295654 0.002374997 0.11272706 -0.07509618 -0.06439546 0.0045208856
0.03555938 -0.008880393 -0.054031912 -0.0891191 -0.122070245 0.011959866 0.0042328 0.031768486
0.064354144 0.10072087 -0.069463685 -0.07315854 -0.084408455 -0.0011720738 -0.06092673 -0.09277122
0.06156403 -0.024328426 -0.0074186386 0.09577201 -0.13695972 -0.04277351 -0.07781769 0.011857144
0.0744254 0.008401546 -0.078198954 0.0040906523 -0.013687662 -0.015838588 0.13731052 0.10076569
0.052955262 -0.13217077 0.036836244 -0.08580883 0.13770522 -0.06994586 -0.015240138 -0.06006625
0.01850453 -0.037714496 -0.097798474 -0.055684075 0.10854025 -0.10056969 -0.034547564 0.08605668
0.020434191 -0.13589062 0.032134734 -0.08592425 0.040892214 -0.08628874 -0.09304073 -0.03855007
-0.004085052 -0.12209866 0.1204674 0.08362906 0.0855506 -0.061185926 0.111347444 0.11801657
0.06868387 0.107021786 -0.09321693 0.10206624 -0.10672803 -0.12085995 0.034853704 0.07853563
0.056416098 -0.1182569 -0.03921959 -0.08531929 -0.061439063 0.027452113 -0.016850749 0.09630112
0.11778623 0.10763331 0.06115527 0.05659151 -0.08963455 -0.020574322 0.04109911 0.0637443
0.01186891 0.057190455 0.03581381 -0.016665226 0.03538368 0.06275227 0.042078916 -0.03761621
-0.10852751 0.0075992597 0.08023729 -0.005293874 0.056686662 -0.10344052 -0.06874914 0.06708219
0.09751274 -0.10723718 -0.10266391 0.10422095 0.06919326 -0.012393426 0.09621641 -0.031069724
-0.032465715 0.03439692 0.026423989 -0.010563991 -0.09709764 -0.04589853 -0.053360537 0.06574088
0.093827315 -0.07524237 -0.02121142 0.022518322 -0.09795808 0.013704399 -0.06166348 -0.03134243
-0.046662413 0.015225465 -0.112345874 0.038048834 0.10181106 -0.09657588 -0.08162462 0.00977976
-0.014505383 0.07575031 -0.015187105 0.08708534 0.023692874 -0.076998994 0.059611388 -0.021365954
-0.006624544 0.039816916 0.013524797 0.0027015838 0.03495679 -0.12901638 0.117882326 0.01381669
0.040509194 0.05929853 -0.108072236 -0.03132053 0.005181859 -0.09378018 0.11433849 0.024935888
-0.048060052 0.013307777 -0.016992196 -0.049181923 0.06288379 0.10017398 -0.15826263 -0.0013490124
0.036458265 0.035055727 0.0132223265 0.027078027 -0.08691367 -0.11170287 -0.05618454 0.028751135
0.11456993 -0.022898644 -0.10900381 0.08299781 -0.12440453 0.035053995 0.027996963 -0.07360607
0.022682436 -0.10182088 -0.091105305 -0.050003257 0.121729694 -0.06123745 0.06316341 -0.019302314
0.009139333 0.053264968 0.09917078 -0.0118861655 0.050464213 0.054967742 0.08787869 0.04526424

lstm.weight_hh_l1 f4 [256, 64]
00000000: 378b b6bd 391d e6bd 0106 433d ca4d d1bd
00000010: 313c 74bb 678a d33d b65f c33d 9959 c83d
00000020: 4d13 a03d c247 1abc 87ec 323c 6de3 f33d
00000030: 040e ecbd b635 593b 87c7 2ebd c9c2 9ebd
00000040: 4acc e33d 371e 71bd 7127 853c 1115 ce3d
00000050: 76f6 91bd f4af d8bd 8c24 813d 013b 86bd
00000060: 37af a4bd f520 e7bb 511c c9bd d132 dc3d
00000070: 6c1d f03d 890f d6bc 2f23 dc3c 053d d63d
00000080: 2566 ed3d 8cd0 843b 0377 e63d feb3 83bd
00000090: afe5 9b3d 2b80 7ebc c030 bdbd d92c 8dbd
000000a0: 481e 76bd da90 f73d b27f 223d bfee 2f3d
000000b0: 95c8 073b 78e0 f2bd 8bc8 b8bd 1cd1 4abc
000000c0: b636 42bd f00a 04be ea44 fa3d 982b bebd
000000d0: feda 14bd ec65 8fbd c5b6 753b a4f4 563d
000000e0: d581 8e3c 6b14 7d3c 03de bebd 09bc f2bd
000000f0: 3212 013d 6394 babd 6cff 8cbd b0d0 533d
00000100: ea25 493c 39bf ecbc 059a a6bd 59b2 a33d
00000110: 3361 dd3a bcfd 43bd f3f3 993d 9d98 e9bd
00000120: 40f4 9b3d a6e5 ecbc 7b99 e5bd e35a b43d
00000130: a09a 91bd eae8 95bc 0d26 dd3d 9784 0dbd
00000140: 2393 db3d 5fb0 273d 1f6d 61bd b167 fcbc
00000150: 6782 bf3d 93c2 efbc f652 0bbe b50d 3dbd
00000160: 7ea8 d9bc 5d7f 41bc 2f79 883d 0821 973d
00000170: 7e64 ea3d 342d 093e 82d7 cebc de8b 86bd
00000180: 1414 423d 0180 cf3d ab73 67bc d9d3 edbd
00000190: f160 d3bc c740 173d e45b 363c 3db7 073e
000001a0: f17a e6bd 6111 b13d 9e5b d63d 9177 833d
000001b0: bacb 56bc fee0 f2bd f885 bdbc c8e0 2e3d
000001c0: 12b3 563c d2fa 563d 3aea a3bc 0c95 00be
000001d0: 48c6 903d 8342 63bd d6b2 a7bb 9aee 373d
000001e0: 5116 623d f69b 27bc 37e0 42bd ae3a 81bd
000001f0: f1c4 873d cd21 b23d 0f80 e4bc 8383 dc3d
00000200: 9e2f 5ebd 6a6f 443b 356e 9bbd 4dd8 c83d
00000210: 4bdc bfbb b3f9 db3d bb88 d53d f412 783d
00000220: 9ca2 67bb 86d0 abbc eb12 fbbd 53a3 41bd
00000230: 607d cc3d 10f3 ec3d 49e3 f03d b8d9 cbbd
00000240: 0671 a53d 1297 94bd 2a59 f8bc 8000 c339
00000250: f932 c73d 10ee d33c c2b9 3d3d 1253 c03d
00000260: 0369 fb3d 02de 8cbc 2bab 283d cbe9 c6bd
00000270: dcb2 b9bd a0ac 26bd da65 92bc d607 bd3d
00000280: dd38 e0bd 5936 aa3b 5adb ebbd bbba d2bd
00000290: 0fd3 55bd 8aa5 b3bc 54b1 e0bd 666a cd3c
000002a0: 42d0 063c b36e df3d bbac 57bc d6c5 99bd
000002b0: 3296 85bc 35aa 013e 39df 96bc 57e1 843d
000002c0: 7891 623d 2a8a f4bb ff71 463d ba91 49bd
000002d0: cb4a 34bd 31c5 273d a0f3 8b3d 21fa b83d
000002e0: 3727 d4bc d58b abbd 7bc4 ca3b 8ac1 78bd
000002f0: 6a17 2bbd e73d 59bd 00bc 383d bd35 9f3b
00000300: ab72 743d c606 13bd f62e 01be ff27 70bd
00000310: 64a5 d3bd 592f cdbd 04d9 513a c97a 15bd
00000320: d8bb 653d dec7 d1bc fb10 f13d 51d5 4fbd
00000330: 633a ad3d 643a 97bd 41b2 d2bb e91f 583d
00000340: 8476 943d e10e 093e 77ed cf3d 7c93 a83d
00000350: aebb a6bd bbd7 2b3c 1090 3fbd 4525 29be
00000360: eb34 3abc 260f 1dbd 498b 7bbd 601b 693d
00000370: d202 8e3d d404 97bd 5fab 873d b9a3 083e
00000380: a7e9 adbd 16f6 8a3c 7ec9 0a3e b374 ff3b
00000390: c79e 583d 3fa0 08bd 5983 89bd 3a66 693d
000003a0: a5da 493d 47f6 debd dddb d03d 5276 0b3d
000003b0: 8e73 d2bd 848d df3d b8ee 363d cac5 fe3d
000003c0: 324b 073e 7009 61bc 5773 f7bd 697f 163e
000003d0: e327 803d 82ab aa3d 5949 8c3d a692 99bc
000003e0: 6763 b6bd 83d8 e03c cf24 e53b 1f35 bebd
000003f0: b9f1 a0bd e721 76bd 16b6 36bd 0a7f 383c
-0.08913272 -0.112360425 0.047613148 -0.10219915 -0.0037267322 0.103291325 0.0953974 0.097827144
0.07816181 -0.009416522 0.01092065 0.119086124 -0.11526111 0.0033143586 -0.042670753 -0.07751996
0.111229494 -0.058866706 0.016254159 0.10062612 -0.07127087 -0.105804354 0.06305799 -0.06554223
-0.08041232 -0.0070534893 -0.09819854 0.1075188 0.11724362 -0.026130455 0.026872246 0.10460857
0.11591748 0.004053181 0.112531684 -0.06430815 0.07612168 -0.015533487 -0.09237814 -0.0689332
-0.060087472 0.12088175 0.03967256 0.042952295 0.0020718921 -0.1185922 -0.090226255 -0.012378957
-0.047415458 -0.12894797 0.122201756 -0.092856586 -0.03634166 -0.07001862 0.0037492972 0.0524794
0.017395893 0.015446763 -0.09319689 -0.11852271 0.031511493 -0.09110334 -0.06884655 0.05171269
0.012277106 -0.028899776 -0.08134846 0.079930015 0.001688993 -0.0478494 0.07517233 -0.11406062
0.07614946 -0.028918099 -0.11210915 0.08806398 -0.071095705 -0.018299539 0.10798273 -0.034550276
0.107214235 0.040939685 -0.055035707 -0.030811163 0.09351044 -0.029267585 -0.13605866 -0.04615565
-0.026569601 -0.011810151 0.06663739 0.07379347 0.114449486 0.1339615 -0.025249247 -0.06569646
0.04738243 0.10131837 -0.0141266985 -0.11612672 -0.025803061 0.03692701 0.011130307 0.13253494
-0.11253918 0.08645893 0.10466693 0.0641929 -0.013110096 -0.1185932 -0.02313517 0.042694837
0.013104217 0.052485295 -0.020009149 -0.12556857 0.07069069 -0.055483352 -0.0051177545 0.044905283
0.055197064 -0.010230055 -0.04757711 -0.063100204 0.066293605 0.08697853 -0.027893094 0.10767271
-0.05424463 0.0029973635 -0.0758938 0.09806881 -0.0058551184 0.10740986 0.1042647 0.06056495
-0.0035344725 -0.020973455 -0.12259468 -0.0472749 0.09984851 0.11569798 0.11762101 -0.09953636
0.08078198 -0.07255377 -0.030315954 0.0003719367 0.09726519 0.025870353 0.04631973 0.093908444
0.12275889 -0.017195705 0.041178863 -0.09712561 -0.09067318 -0.04069197 -0.017870832 0.0923001
-0.10948346 0.005194467 -0.11516447 -0.10289522 -0.052203234 -0.021929521 -0.10971323 0.025075149
0.0082283635 0.10909786 -0.013163741 -0.07508437 -0.01630697 0.12662585 -0.018416988 0.06488293
0.05531451 -0.0074627595 0.04844856 -0.04921124 -0.04401664 0.04095954 0.06833577 0.09032083
-0.025897605 -0.0837628 0.006187973 -0.06073145 -0.041770376 -0.05303755 0.045101166 0.004858701
0.05967967 -0.03589513 -0.1261557 -0.058631893 -0.1033428 -0.100187965 0.0008005055 -0.03649405
0.056087345 -0.025608 0.11770817 -0.050740544 0.08458402 -0.07384184 -0.006429941 0.052764807
0.072491676 0.13384582 0.10152715 0.082312554 -0.08141266 0.010488446 -0.046768248 -0.16518123
-0.011365156 -0.038344525 -0.06141213 0.056910872 0.06934132 -0.07373968 0.06624483 0.13343705
-0.08491831 0.016963046 0.13553426 0.007795894 0.052885797 -0.033355948 -0.06714506 0.056982256
0.04928078 -0.108868174 0.101981856 0.034048386 -0.102759466 0.10915664 0.044661254 0.12440069
0.13212278 -0.01373516 -0.12082546 0.1469704 0.06257608 0.08333494 0.068499275 -0.018746685
-0.08905678 0.02744699 0.0069929133 -0.09287476 -0.07858605 -0.060090926 -0.044607244 0.011260757

lstm.bias_ih_l1 f4 [256]
00000000: 5e6e 383b 1410 763d 86c5 d63d cd22 943d
00000010: e0b1 0dbe 32a9 fa3d f349 16be 340a e1bd
00000020: 298b 873d 09b0 ec3d be7d 39bb 34c8 8c3d
00000030: d579 98bd 0169 33bd 0f89 95bc 61bf aebc
00000040: 5bbb 30bd e74d 87bd e2a8 60bd 311e a63d
00000050: 5e6f 9b3c c59e b73d b189 6dbd 1b2b 2bbd
00000060: d66b 31bd 3eea febd 1429 fd3c a479 be3d
00000070: 69f0 a8bd 2908 eabc e449 03be b6c8 9d3d
00000080: f648 9dbc a107 853d ebc3 10be 9f30 a43d
00000090: 4218 bd3c ab86 18bd 572c 983d e31a b1bd
000000a0: 6102 a53d 1af8 9f3d 984b 873d 429c dd3d
000000b0: 0a04 f23c f760 f9bd 7cd1 703d 9186 583d
000000c0: 4a78 c23d 0cee 853c d3de 05be 4ce6 973d
000000d0: 6042 183a 776e 813a 3c2d abbd ee0d 00be
000000e0: 7d2d 933d 9cfb 823d 7df6 30bd f6f2 593c
000000f0: f162 293d c65e 183d 3365 60bd 8776 063e
00000100: b4eb e63d ad32 bf3d c56c f8bd 45a4 863d
00000110: b35b d5bd 951f 483d ba69 d0bd 657b 023d
00000120: e177 a23d 863b cc3c 0686 993d 69d3 7abd
00000130: 1ca8 9ebd a195 583d 7ac6 dd3d ee83 b23d
00000140: cff3 afbd 8f00 193d 511c 903c 62c4 773d
00000150: e946 5a3c 2dcd b63a cd9c 9d3d afc2 2f3d
00000160: ed73 1fbd 9b8a c3bd 8f31 97bc 4f81 30bd
00000170: 5851 00bd 2ca8 b13d a58c a13d 2a57 e9bd
00000180: a8f1 0ebd af0b bb3d e705 b33d f8f5 0b3d
00000190: 8dc3 ce3d f843 263d 75ef afbd 75a0 ed3d
000001a0: 56a5 01be 6bd6 96bd 1b87 05be 38c9 843c
000001b0: e322 c0bd 7909 933d 0593 e53d 78e7 fd3c
000001c0: d4d0 87bd af58 8d3d de25 e33c bcd5 c53d
000001d0: 2a6e a8bd 8bf0 c83d a3f0 7e3d 04ca 893d
000001e0: a367 30bd ab1e efbc 7b8d c83d b7b0 e93d
000001f0: b9c0 da3d cb9b fc3d 4755 13bd 056b 513d
00000200: 25bb e1bd 079a c83d 4356 3139 6b2e 823d
00000210: 0017 9bbc 768c 053e e312 8f3d 1719 c83d
00000220: d96d 1dbe 6f32 1cbe 2a0b 163e ac13 013e
00000230: d066 4bbd cac6 0c3d 5cfb 053c b6fb 25be
00000240: 4be9 b8bd 7865 ec3b d16d cebc ffdf b1bd
00000250: 3099 57bd 9797 40bc 7b31 fd3d 027a b7bd
00000260: 5fb1 7e3d 148e 9fbd a2e4 983d 20eb 9b3d
00000270: b7a1 70bc e6f5 09be df56 9bbd 2da3 b2bb
00000280: 118d 30be 6c9c b53d e56f bd3d dbe6 9ebd
00000290: 406e 013c f6f8 053e 2dc1 ccbd 28c8 25be
000002a0: 02ab 8bbd 5a1c 1ebe 0488 ae3a 99a5 e83d
000002b0: 6d15 8abb 2ef0 623c 3015 82bd ed08 ed3c
000002c0: df19 29be aaaf 2ebe c1d0 bb3d 524d c03d
000002d0: 3e5c 01be ec07 d2bb 427c 16be 8d14 22bc
000002e0: abd5 823d 083b 0cbe 6586 2f3e efbb dc3d
000002f0: a9c3 72bd e28a 223e 1e48 9a3d d317 d1bd
00000300: 0ee5 03bd dcab cf3d e0fb 3c3d cee9 ac3d
00000310: 5e3c 0c3d b504 7bbd e8fd 453c e1f3 c73d
00000320: 8862 d1bd f10b d63d fa09 0b3d 5689 43bd
00000330: edd6 abbb 022f f1bd 2e18 5bbd 345d 343d
00000340: 91df d33d 53a5 5dbd 5208 0cbd d55b e1bd
00000350: 963e 56bb 5ecc 183d 1ac2 fabc abb6 b2bd
00000360: b092 633c 7e2c c23c ef50 f2bc b50b a03d
00000370: 718f 53bd 6c0e 293d df84 02be 256f b9bd
00000380: 02b1 073e a7bf 1d3c ddaa fbbb edc8 7abc
00000390: 7d67 fa3d f1ac 943d 851c 833d 7b42 dd3d
000003a0: 7169 593c 0687 063e f821 bcbd 5b28 123d
000003b0: 51dd c3bd 1292 6dbd a898 a9bd 46b8 64bc
000003c0: 36f4 973b 0620 9d3d 04c1 be3d 81a9 583d
000003d0: 1317 a63b 82c2 903d 52fc d5bb 7252 373d
000003e0: e0ab 20bd 5936 133d 4f22 783d 8246 f0bd
000003f0: 2b5b e9bb 92b4 033d 2afa c0bc f133 95bd
0.0028141956 0.060073927 0.10486893 0.072332 -0.13837385 0.12239303 -0.14676647 -0.10988274
0.066183396 0.115570135 -0.0028303708 0.06874123 -0.074451126 -0.04380131 -0.018253831 -0.021331491
-0.043147426 -0.066066556 -0.05484856 0.08111227 0.018974002 0.0896583 -0.05799264 -0.041789155
-0.04331573 -0.12447022 0.030903377 0.09300545 -0.082489796 -0.028568344 -0.12821156 0.07704298
-0.01919983 0.06495596 -0.14137237 0.08017086 0.023082856 -0.037237804 0.07430332 -0.08647706
0.08057094 0.078109935 0.06606215 0.108208194 0.029542942 -0.12176698 0.05879353 0.052862708
0.094955996 0.016348861 -0.13073282 0.074169725 0.00058082305 0.000987484 -0.08358237 -0.12505314
0.071864106 0.06395647 -0.04320382 0.013302555 0.041354124 0.037199758 -0.05478401 0.13131152
0.112754256 0.093358375 -0.12130121 0.06574301 -0.10417881 0.048858244 -0.10176416 0.03185596
0.07933021 0.024930727 0.07496266 -0.061236773 -0.07746908 0.052877072 0.10828872 0.0871657
-0.08591425 0.03735405 0.017591627 0.06049002 0.01332257 0.0013946645 0.07695923 0.042910274
-0.038928915 -0.09547921 -0.018456249 -0.04309207 -0.031327575 0.08674654 0.07888154 -0.11393578
-0.03489843 0.09133088 0.0874136 0.03417012 0.10095892 0.040592164 -0.08590595 0.116028704
-0.12660727 -0.07365116 -0.1303982 0.01620923 -0.09381654 0.07179541 0.112096824 0.030994162
-0.06631628 0.06901681 0.027728017 0.09659907 -0.08224137 0.09811505 0.062241208 0.067279845
-0.043067586 -0.029189428 0.0979261 0.11410659 0.1068129 0.12334403 -0.03597 0.051127452
-0.11022023 0.097950034 0.0001691217 0.0635651 -0.018931866 0.13041863 0.06986024 0.097704105
-0.15373935 -0.15253614 0.14652696 0.1260516 -0.049658597 0.034369268 0.0081776045 -0.16209301
-0.09028872 0.0072142445 -0.025198849 -0.08685302 -0.052636325 -0.011754892 0.12362953 -0.08958818
0.062180873 -0.07790771 0.07465483 0.07613206 -0.014686993 -0.13472709 -0.07584929 -0.005451581
-0.17241313 0.08867726 0.09249858 -0.07758876 0.007899821 0.13083252 -0.09997783 -0.16189635
-0.068197265 -0.15440503 0.0013315682 0.1135971 -0.00421398 0.013851209 -0.063516974 0.02893492
-0.16513775 -0.17059198 0.09170676 0.09389748 -0.12632844 -0.006409636 -0.14695838 -0.009892595
0.0638841 -0.13694394 0.17141111 0.10778033 -0.059268627 0.15873292 0.075332865 -0.10209622
-0.032200865 0.101402014 0.046138644 0.08443032 0.034237258 -0.061283786 0.012084462 0.09763313
-0.102238715 0.104514964 0.03394506 -0.047738396 -0.005244127 -0.11776544 -0.053489856 0.044034198
0.10345376 -0.054112744 -0.034187622 -0.11003844 -0.0032691113 0.037304275 -0.030610133 -0.087262474
0.0138899535 0.023702856 -0.029579608 0.07814733 -0.05165047 0.04127352 -0.12745999 -0.09054402
0.13251117 0.009628213 -0.0076802806 -0.0153066935 0.1222677 0.072595485 0.06401924 0.10803696
0.013269768 0.13137445 -0.091861665 0.035683017 -0.09563697 -0.05800063 -0.0828107 -0.01395995
0.0046372665 0.076721236 0.093141586 0.052896027 0.0050686686 0.070683494 -0.006530323 0.04475636
-0.039226413 0.0359405 0.060579594 -0.11732198 -0.007121464 0.032154627 -0.023556788 -0.07285298
